machine_learning_backend/ML_Models/Cardio_Vascular_1layer_unorthodox.pt (torch, 3744 bytes, 4 tensors)

weight f4 [5, 11]
000000 44 81 aa 3d ca 85 d4 be e2 a8 ce 3d b2 0e 3e bd
       0.08325437 -0.41508323 0.100908056 -0.046400733
000010 9c 91 ff bd a1 26 6d 3e 14 55 fe be b3 59 df 3e
       -0.12478945 0.23159267 -0.49674284 0.43623123
000020 71 40 9f be 85 69 d3 3e 6f fa 38 3e 79 46 08 be
       -0.31103852 0.41291443 0.18064283 -0.13308133
000030 7f 6d 7b 3e a4 98 2e be b5 5c f9 3d 36 08 15 3b
       0.24553488 -0.17050415 0.121758856 0.002274049
000040 21 9e 79 bd 1c 0d 6e bd ef 27 55 3d 5d 82 98 be
       -0.06094182 -0.05811797 0.052040037 -0.2978696
000050 87 86 03 3e 99 06 04 be 6b 6e 94 3e 64 a7 47 3d
       0.12844287 -0.12893142 0.28990492 0.04874362
000060 ec 79 11 3e 71 bf 06 be 7f 04 2f 3e 4e f9 40 3e
       0.14206666 -0.13158967 0.17091559 0.18845102
000070 0c b3 20 3f 7d 85 dc be ca 58 21 3e 5e 36 ab be
       0.62773204 -0.43070593 0.15756527 -0.33439916
000080 cf fd b7 bd 4b 0d b8 bd c2 97 d4 bd a3 95 d7 bd
       -0.08983957 -0.089869104 -0.10380508 -0.10526588
000090 fc a1 20 be 7f f6 56 bc a5 83 26 be c6 39 b3 3d
       -0.15686792 -0.013120293 -0.16261156 0.08751254
0000a0 76 c6 00 3d d4 b7 01 3e 38 2e 5c be 58 95 f8 3d
       0.031439267 0.12667781 -0.21502006 0.1213786
0000b0 a3 98 4d bd 76 24 f5 be 8c 13 f1 3d 20 7f 56 bd
       -0.050194394 -0.4787938 0.117713064 -0.05236733
0000c0 8d ca a8 bd ec db 66 bc ce 9c 81 bf 16 f8 07 3e
       -0.082417585 -0.014090519 -1.0125978 0.13278231
0000d0 ce 21 a7 3e 5d 69 c4 3e 08 0b 20 3f
       0.32642978 0.38361636 0.6251683

bias f4 [5]
000000 9f 1b 9f 3f 05 a9 9d be bc 99 4d bf 7e 10 87 bc
       1.2430304 -0.30793014 -0.80312705 -0.016487356
000010 6b 76 13 40
       2.3041027

weight f4 [11, 5]
000000 8d b6 d7 3e 01 8f 85 bd 82 d1 1c 3e b3 a4 a3 3e
       0.42131463 -0.065214165 0.15314296 0.31961593
000010 92 d3 9d 3e ce 57 ac 3e 75 1d 5e be 27 fa 68 3e
       0.30825478 0.3366074 -0.21690924 0.22751676
000020 ad 34 13 bc 0c 0d 34 be 7d d8 be be e0 a3 d0 3e
       -0.008984727 -0.17583102 -0.37274542 0.40750027
000030 0d bc 7c be 1d 1e 88 3e 24 80 2f 3e cd 1c ba be
       -0.2468111 0.26585475 0.17138726 -0.36350098
000040 73 e8 13 bd 3e f9 f3 be 48 84 04 bc 57 fd 95 3e
       -0.036110353 -0.47651094 -0.008088179 0.29294845
000050 b2 98 c0 bd ac b2 ea be aa 19 d3 3d f6 b9 48 3d
       -0.09404124 -0.4583944 0.103076294 0.04900547
000060 39 4a 50 bd 51 13 21 3c f2 a3 cd be c8 d0 da be
       -0.050852034 0.009831266 -0.40164143 -0.42737412
000070 c3 f8 d1 be ea f1 ae 3e 59 19 e4 be 17 38 a5 be
       -0.41010103 0.3416894 -0.4455059 -0.32269356
000080 b2 e4 2a be 7e bc c1 3d c9 cf bf be 9a 76 b5 be
       -0.16688803 0.0945978 -0.37463215 -0.35442048
000090 9e 47 d1 bd 1a 78 50 3d f3 5b d4 be 34 8d af 3e
       -0.10218738 0.050895788 -0.41476402 0.34287417
0000a0 65 dc c2 3e f9 b8 8c be a3 dd 03 3d 74 46 d7 be
       0.38058773 -0.27484873 0.03219379 -0.4204594
0000b0 04 3a c0 be cd 8f 93 be 70 dd 87 3e cd b7 b4 3d
       -0.37544262 -0.2882065 0.2653613 0.0882412
0000c0 72 5c 73 be dd 0a c9 be 87 eb 96 3d ef 60 66 3e
       -0.23765734 -0.392661 0.07369142 0.22497915
0000d0 69 bc c9 be 0e 3d 3c bd 7d 81 7e bc
       -0.39401558 -0.045956664 -0.015533802

bias f4 [11]
000000 2b 7c 42 3f 58 ca 90 bf 65 18 d7 be ec a1 87 bd
       0.75970715 -1.131175 -0.420108 -0.06622681
000010 e5 b8 03 bf 3d 37 4e be fc 49 c8 3e 97 a9 9a bd
       -0.51454 -0.20138259 0.39118946 -0.07551878
000020 c4 3b 89 3e 27 73 8a be 15 08 5b 3d
       0.2680341 -0.2704098 0.053474505
